model/lastModel/trained_model.pt (torch, 8417 bytes, 12 tensors)

fc1.weight f4 [32, 5]
0.9965575 0.6366236 1.4254417 -0.2997472 -0.44757178 0.8829816 0.84799546 0.7756863
-0.15420742 0.40639198 0.4917869 1.3715314 0.98596907 0.20289798 -0.34725177 1.0266379
1.2593023 0.4073539 -0.050009545 -0.4778202 0.5114842 0.83530813 0.69964176 -0.14073585
0.58453494 0.6153596 -0.46341795 1.7514669 -0.21814208 0.17317031 0.23334014 0.3631451
0.48263165 0.9560392 -0.9511827 -0.05928072 0.025273655 -0.40160266 0.25690216 0.11188174
0.13818431 -0.5076314 0.8159159 -1.7568942 1.35271 0.57360333 -0.41895306 1.1656802
-0.22844633 0.65117824 -5.181023 -0.7577605 -7.5793815 -0.46047014 0.34015203 1.00485
1.0040553 0.27693185 0.18945834 -0.6320007 0.107316196 -0.084694505 0.055856347 0.04497674
-0.08477169 0.5231529 1.4598396 0.6918374 0.6167343 -0.22450049 0.33453172 -0.5571636
0.97701406 -1.3486184 1.6052443 1.0272881 1.2559347 1.0563695 0.30360502 -0.4980163
0.98097247 1.0297037 0.9428205 0.09471982 -0.04621487 1.0050093 1.9165931 -0.17511538
-0.61715037 0.70310587 0.29680118 0.7220192 1.4697711 -0.116709664 0.38665307 1.5219768
0.33219194 2.4196868 0.34608465 0.23597904 0.99642175 0.25140935 1.8937883 0.3461516
-0.52007204 -0.45054662 0.0781008 0.20380108 0.25855932 0.059012737 0.61900073 -0.30313802
1.7942753 0.5617667 -0.70668566 0.85140413 1.085283 1.2338489 0.22541025 -0.218741
1.2648267 2.2111554 -0.07854869 -0.2974665 0.742082 0.8178341 0.88533115 1.2883141
0.26486725 -0.0751981 0.51732504 0.6575958 0.36820447 0.48665366 -0.22756481 0.6942291
0.73342997 1.4679613 0.2109176 0.037303954 0.03306419 -0.60339755 1.3978643 -1.4394048
1.3650329 -0.70248514 -0.1466921 -6.5721927 0.2743982 0.07985059 0.22431326 -0.14361024
0.11443949 -0.16573736 -0.13975057 1.0677123 2.279295 0.43147582 0.20015986 -0.5200797
00000000: 641e 7f3f c4f9 223f e074 b63f 7778 99be
00000010: 2128 e5be 150b 623f 3b16 593f 6193 463f
00000020: 8de8 1dbe 9c12 d03e 7ecb fb3e 578e af3f
00000030: 7868 7c3f 7dc4 4f3e fcca b1be df68 833f
00000040: d130 a13f b190 d03e cfd6 4cbd d9a4 f4be
00000050: a1f0 023f c1d6 553f b91b 333f 0f1d 10be
00000060: 15a4 153f 3588 1d3f 1e45 edbe 1130 e03f
00000070: a360 5fbe 8f53 313e b8f0 6e3e 28ee b93e
00000080: 7f1b f73e fcbe 743f b680 73bf 57d0 72bd
00000090: b20a cf3c dd9e cdbe ae88 833e 4122 e53d
000000a0: 3080 0d3e 22f4 01bf dddf 503f e9e1 e0bf
000000b0: 9a25 ad3f abd7 123f 0481 d6be 0235 953f
000000c0: d6ed 69be 9eb3 263f f1ca a5c0 98fc 41bf
000000d0: 4b8a f2c0 bec2 ebbe 6828 ae3e ed9e 803f
000000e0: e284 803f 03ca 8d3e 5e01 423e ccca 21bf
000000f0: 98c8 db3d 5074 adbd a0c9 643d 8839 383d
00000100: c89c adbd 59ed 053f 06dc ba3f 411c 313f
00000110: 4de2 1d3f 75e3 65be be47 ab3e 46a2 0ebf
00000120: 981d 7a3f 879f acbf a578 cd3f 2d7e 833f
00000130: 78c2 a03f 1e37 873f 1e72 9b3e fefb febe
00000140: 0321 7b3f 55cd 833f af5c 713f 77fc c13d
00000150: ce4b 3dbd 25a4 803f ec52 f53f 7251 33be
00000160: 91fd 1dbf bffe 333f 53f6 973e 40d6 383f
00000170: 7621 bc3f 7a05 efbd 64f7 c53e 23d0 c23f
00000180: 1015 aa3e 26dc 1a40 0232 b13e 7da4 713e
00000190: 7f15 7f3f bab8 803e a867 f23f c83a b13e
000001a0: 7123 05bf 0cae e6be 50f3 9f3d 3bb1 503e
000001b0: e361 843e 57b7 713d d576 1e3f e834 9bbe
000001c0: d0aa e53f f1cf 0f3f 5ae9 34bf 9ff5 593f
000001d0: 8eea 8a3f c3ee 9d3f f2d1 663e a4fd 5fbe
000001e0: d7e5 a13f 9283 0d40 23de a0bd 874d 98be
000001f0: 16f9 3d3f 935d 513f 10a5 623f 7ae7 a43f
00000200: ae9c 873e 7601 9abd 6a6f 043f 3358 283f
00000210: 4c85 bc3e ab2a f93e c006 69be 00b9 313f
00000220: 11c2 3b3f 28e6 bb3f c9fa 573e 08cc 183d
00000230: 516e 073d 4378 1abf 38ed b23f 6b3e b8bf
00000240: 66b9 ae3f 11d6 33bf 7436 16be 674f d2c0
00000250: ec7d 8c3e b588 a33d 60b2 653e 900e 13be
00000260: 405f ea3d 0eb7 29be c61a 0fbe ccaa 883f
00000270: f8df 1140 66ea dc3e b5f6 4c3e f123 05bf

fc1.bias f4 [32]
0.16799521 0.23131372 0.1883456 -0.17617409 0.30186415 0.28370526 -0.42005333 -0.1618999
0.71457714 0.34780514 1.8783574 0.18259278 -0.40209946 -0.27796307 0.6082331 0.2564865
-0.14078231 0.052501768 0.21070695 -0.77540874 0.26825362 -0.36108637 0.36025524 0.15730602
0.20664078 0.13022049 0.18102536 0.07324389 0.64585465 1.4325722 -0.39667898 0.049422268
00000000: f006 2c3e 81dd 6c3e abdd 403e fb66 34be
00000010: f08d 9a3e d141 913e 3b11 d7be 16c9 25be
00000020: 87ee 363f 8413 b23e 046e f03f 9af9 3a3e
00000030: fbdf cdbe 2d51 8ebe 2ab5 1b3f 3352 833e
00000040: 3d29 10be 180c 573d 90c3 573e 3081 46bf
00000050: 8a58 893e 50e0 b8be 6073 b83e d414 213e
00000060: a499 533e 8558 053e b65e 393e e500 963d
00000070: bb56 253f 875e b73f 8219 cbbe 016f 4a3d

fc2.weight f4 [3, 32]
-0.2522695 -0.8657979 -0.6645597 -1.0059733 -0.8661409 -0.112785414 -0.46744588 0.11332803
-0.6847506 -0.6223212 1.8745487 -0.94225097 -0.09243154 -1.1906552 -0.43732935 -0.75009644
-0.5001936 -0.5607354 -0.42736042 2.4991002 -0.6635696 -0.15711322 -0.40005395 -0.67031604
0.25230625 -0.7246949 -0.51970273 -0.6815172 -0.5755516 1.5331279 0.12721162 -0.42251602
-0.44250786 -0.72596645 -0.6854724 -1.2194077 -0.6819942 -0.26052004 -0.8880659 -0.18628465
-0.43755352 -0.48690292 2.0247886 -1.1650288 0.011971489 -1.236223 -0.3750389 -0.66075164
-0.70324993 -1.3643835 -0.33221605 1.4508699 -0.2640148 0.12310009 -0.046474893 -0.780258
-0.65860635 -0.75722706 -0.8300089 -0.44284976 -0.30003443 1.405723 -0.17446443 -1.3555549
-0.65242106 -0.6012082 -0.47583857 -0.64696044 -0.44011718 -0.6961456 -0.72512794 -0.10642102
-1.3858889 -0.8174806 2.8541303 -0.54664195 0.026481047 -0.3880427 -0.92602545 -0.5842091
-0.478128 0.25909945 -0.43202382 2.3338223 -0.9862253 -0.008014017 -0.8586793 -0.7625763
2.2847583 -0.8876072 -0.44214126 -0.6422315 -1.2709883 1.6449221 0.17425497 0.5892501
00000000: 7829 81be eea4 5dbf 9620 2abf bcc3 80bf
00000010: 69bb 5dbf 0afc e6bd 1155 efbe 8718 e83d
00000020: d14b 2fbf 7150 1fbf 36f1 ef3f 5c37 71bf
00000030: bf4c bdbd 6467 98bf a2e9 dfbe 5206 40bf
00000040: b00c 00bf 5b8c 0fbf fcce dabe 42f1 1f40
00000050: b3df 29bf 4ae2 20be dfd3 ccbe d599 2bbf
00000060: 492e 813e 9b85 39bf 3d0b 05bf e977 2ebf
00000070: 5a57 13bf 893d c43f c343 023e 0554 d8be
00000080: 6490 e2be f0d8 39bf 1f7b 2fbf 8d15 9cbf
00000090: 2c97 2ebf e262 85be 4958 63bf 67c1 3ebe
000000a0: 0407 e0be 574b f9be 2396 0140 aa1f 95bf
000000b0: 1024 443c 8e3c 9ebf 1905 c0be 0527 29bf
000000c0: 3008 34bf 1ea4 aebf 3918 aabe 1bb6 b93f
000000d0: f32c 87be e61b fc3d 755c 3ebd fdbe 47bf
000000e0: 6d9a 28bf a2d9 41bf 777b 54bf 34bd e2be
000000f0: 1d9e 99be bbee b33f cea6 32be d382 adbf
00000100: 1105 27bf c8e8 19bf 1da1 f3be 339f 25bf
00000110: 0a57 e1be 9936 32bf fca1 39bf 44f3 d9bd
00000120: cf64 b1bf 6946 51bf 12aa 3640 baf0 0bbf
00000130: c8ee d83c 88ad c6be 0110 6dbf ba8e 15bf
00000140: 31cd f4be afa8 843e 3a32 ddbe 585d 1540
00000150: 4379 7cbf 394d 03bc 68d2 5bbf 3338 43bf
00000160: 7b39 1240 3a3a 63bf 5760 e2be 4969 24bf
00000170: bfaf a2bf cf8c d23f e56f 323e 18d9 163f

fc2.bias f4 [3]
0.63613826 0.28802195 -0.7321285
00000000: f5d9 223f 9d77 933e c66c 3bbf

exp_avg f4 [32, 5]
-0.003338042 -0.0010517858 -0.0037952915 0.005602428 -0.005602428 -0.005529648 -0.002174468 -0.006673931
0.0024522399 -0.0024522399 -0.0043459316 -0.001657611 -0.0050841845 0.011348336 -0.011348336 -0.006213016
-0.0026916987 -0.0056610075 0.016351208 -0.016351208 -0.0049606306 -0.0020276853 -0.0060429387 0.002306
-0.002306 -0.0027422102 -0.00020429141 -0.0032953557 0.002583571 -0.002583571 -0.0008403759 -0.00017264916
-0.00074703764 0.0072417404 -0.0072417404 6e-45 6e-45 -6e-45 6e-45 -6e-45
-0.007021892 -0.0033998024 -0.008080301 0.0030162535 -0.0030162535 -0.0051597934 -0.0016093017 -0.0063437587
0.0021591214 -0.0021591214 0.00011535246 -0.0054138806 0.0015113873 -0.021502515 0.021502515 -0.0057241875
-0.0020791728 -0.0060333684 0.014422234 -0.014422234 0.0 0.0 0.0 0.0
0.0 -0.0058954097 -0.0025358726 -0.0046389867 0.016842829 -0.016842829 -0.0045648874 -0.0019005534
-0.0054797055 0.0017470624 -0.0017470624 -0.005029318 -0.0019452615 -0.005976313 0.012934785 -0.012934785
-0.003740824 -0.0015622717 -0.0041453345 0.0023816354 -0.0023816354 -0.0011438209 -0.00047411618 -0.0011056395
-0.00034639516 0.00034639516 -0.0031831085 -0.0012089799 -0.0038527616 0.0011826303 -0.0011826303 0.017673973
0.012002304 0.021293672 -0.012822182 0.012822182 -0.0059062857 -0.0020454165 -0.0072972765 0.013563161
-0.013563161 6e-45 0.0 6e-45 6e-45 -6e-45 -0.0036821093 -0.0007929509
-0.005267343 0.008382682 -0.008382682 -0.005389802 -0.0019310936 -0.006229393 0.012464674 -0.012464674
0.007813531 0.0029683956 0.009523238 -0.003659918 0.003659918 -0.0060145166 -0.0021708738 -0.0071086856
0.014248118 -0.014248118 -0.0037807655 -0.001239525 -0.004021587 0.008810137 -0.008810137 -0.004893017
-0.0019135424 -0.005999062 0.012371495 -0.012371495 -0.0062008384 -0.002796178 -0.007445998 0.0026009094
-0.0026009094 -0.002136987 -0.0068750195 0.0011382295 -0.016158205 0.016158205 0.0 0.0
0.0 0.0 0.0 -3.54912e-06 4.6059915e-05 0.00092867855 0.002901468 -0.002901468
00000000: 0dc3 5abb 13dc 89ba 6dba 78bb 9394 b73b
00000010: 9394 b7bb 0d32 b5bb 8581 0ebb feb0 dabb
00000020: c2b5 203b c2b5 20bb 5168 8ebb 3244 d9ba
00000030: 3b99 a6bb 5fee 393c 5fee 39bc 8e96 cbbb
00000040: 3667 30bb f97f b9bb f8f2 853c f8f2 85bc
00000050: c98c a2bb eae2 04bb d803 c6bb 4320 173b
00000060: 4320 17bb a7b6 33bb 0f37 56b9 e5f6 57bb
00000070: 2151 293b 2151 29bb ac4c 5cba 2809 35b9
00000080: d9d4 43ba 1f4c ed3b 1f4c edbb 0400 0000
00000090: 0400 0000 0400 0080 0400 0000 0400 0080
000000a0: e617 e6bb 38cf 5ebb 3d63 04bc 56ac 453b
000000b0: 56ac 45bb 7c13 a9bb 34ef d2ba 4edf cfbb
000000c0: 0c80 0d3b 0c80 0dbb 61e9 f138 ec66 b1bb
000000d0: be19 c63a 0b26 b0bc 0b26 b03c f791 bbbb
000000e0: bb42 08bb 90b3 c5bb 3c4b 6c3c 3c4b 6cbc
000000f0: 0000 0000 0000 0000 0000 0000 0000 0000
00000100: 0000 0000 482e c1bb e230 26bb a402 98bb
00000110: f9f9 893c f9f9 89bc 0d95 95bb fd1b f9ba
00000120: 1a8f b3bb b0fd e43a b0fd e4ba facc a4bb
00000130: 25f8 feba f2d4 c3bb 6cec 533c 6cec 53bc
00000140: 9d28 75bb 24c5 ccba 96d5 87bb 3615 1c3b
00000150: 3615 1cbb 43ec 95ba cc92 f8b9 1beb 90ba
00000160: 5f9c b5b9 5f9c b539 b39b 50bb a276 9eba
00000170: 9d7e 7cbb 7d02 9b3a 7d02 9bba 02c9 903c
00000180: 50a5 443c 1170 ae3c 2114 52bc 2114 523c
00000190: 8489 c1bb 650c 06bb fe1d efbb 0538 5e3c
000001a0: 0538 5ebc 0400 0000 0000 0000 0400 0000
000001b0: 0400 0000 0400 0080 8b4f 71bb 09de 4fba
000001c0: ad99 acbb 8457 093c 8457 09bc f09c b0bb
000001d0: c01c fdba f01f ccbb a238 4c3c a238 4cbc
000001e0: 5304 003c 6a89 423b 5b07 1c3c 3cdb 6fbb
000001f0: 3cdb 6f3b 6c15 c5bb 3845 0ebb faef e8bb
00000200: f070 693c f070 69bc b8c6 77bb 8f77 a2ba
00000210: 84c7 83bb 6558 103c 6558 10bc 9a55 a0bb
00000220: d4cf faba c893 c4bb d0b1 4a3c d0b1 4abc
00000230: 6730 cbbb 1540 37bb 8ffd f3bb 0574 2a3b
00000240: 0574 2abb b10c 0cbb d847 e1bb a530 953a
00000250: 365e 84bc 365e 843c 0000 0000 0000 0000
00000260: 0000 0000 0000 0000 0000 0000 6b2d 6eb6
00000270: 7530 4138 9072 733a 8e26 3e3b 8e26 3ebb

exp_avg_sq f4 [32, 5]
8.249804e-05 9.108731e-05 6.785954e-05 6.623612e-05 6.623612e-05 0.00012903039 0.00011540118 0.00013062576
0.00012447921 0.00012447921 7.686837e-05 7.069171e-05 7.675348e-05 9.455654e-05 9.455654e-05 0.00016392644
0.00014669182 0.0001582529 0.00018629715 0.00018629715 9.7614684e-05 8.007932e-05 0.00010521595 0.00010283163
0.00010283163 8.435423e-05 8.331384e-05 6.870273e-05 4.938508e-05 4.938508e-05 6.195976e-05 5.4716766e-05
4.8533075e-05 6.762905e-05 6.762905e-05 2.049979e-15 1.3404818e-14 8.775112e-19 1.9308414e-13 1.9308414e-13
0.00029358745 0.00029733096 0.00026958963 0.00017289694 0.00017289694 0.00014558717 0.00013576982 0.00013317916
9.7075404e-05 9.7075404e-05 7.824182e-06 0.0002574199 1.2693645e-05 0.0011065244 0.0011065244 0.00012992282
0.000113266164 0.00013434568 0.00017068145 0.00017068145 0.0 0.0 0.0 0.0
0.0 0.00014845567 0.000111666086 0.00015422623 0.00021711884 0.00021711884 0.0001293182 0.00013042096
0.00011682951 7.534014e-05 7.534014e-05 0.00010569907 9.7692224e-05 0.000104258084 0.00012674712 0.00012674712
6.3359796e-05 6.249907e-05 5.9826165e-05 3.578182e-05 3.578182e-05 4.8270813e-05 4.8587222e-05 4.5978275e-05
6.548643e-05 6.548643e-05 4.9950366e-05 4.935493e-05 4.6218727e-05 3.987648e-05 3.987648e-05 0.0015625608
0.0013469346 0.0014693321 0.0006546555 0.0006546555 0.00020705466 0.0002141061 0.00018077718 0.00017860222
0.00017860222 6.653474e-17 0.0 3.668158e-15 5.290493e-15 5.290493e-15 0.00013041351 0.00013268398
0.00011121512 9.491804e-05 9.491804e-05 0.00014493943 0.00014679639 0.00013202317 0.00014415926 0.00014415926
0.0009924322 0.0011229861 0.0007747536 0.0005923625 0.0005923625 0.00018891097 0.00019292037 0.00017006796
0.00018712427 0.00018712427 5.8639936e-05 5.7548175e-05 5.5660035e-05 6.2891006e-05 6.2891006e-05 0.00011087119
0.00010660948 0.00010527847 0.00012671937 0.00012671937 0.00024974407 0.0002456893 0.00022995904 0.00014329307
0.00014329307 3.229874e-05 0.000205585 4.878065e-06 0.0005725679 0.0005725679 0.0 0.0
0.0 0.0 0.0 9.284962e-05 0.00010453066 7.974317e-05 8.218391e-05 8.218391e-05
00000000: cc02 ad38 2106 bf38 d04f 8e38 3fe8 8a38
00000010: 3fe8 8a38 554c 0739 8903 f238 96f8 0839
00000020: a286 0239 a286 0239 6434 a138 5340 9438
00000030: b6f6 a038 a84c c638 a84c c638 abe3 2b39
00000040: 49d1 1939 b0f0 2539 c358 4339 c358 4339
00000050: 7cb6 cc38 42f0 a738 62a7 dc38 50a7 d738
00000060: 50a7 d738 55e7 b038 c7b8 ae38 7f14 9038
00000070: d322 4f38 d322 4f38 65f0 8138 ae7f 6538
00000080: fe8f 4b38 12d4 8d38 12d4 8d38 70b7 1327
00000090: d07a 7128 707f 8121 b764 592a b764 592a
000000a0: a4ec 9939 16e3 9b39 b557 8d39 ab4b 3539
000000b0: ab4b 3539 c2a8 1839 6f5d 0e39 02a6 0b39
000000c0: f694 cb38 f694 cb38 9b44 0337 50f6 8639
000000d0: caf6 5437 cc08 913a cc08 913a e43b 0839
000000e0: 4f89 ed38 25df 0c39 f4f8 3239 f4f8 3239
000000f0: 0000 0000 0000 0000 0000 0000 0000 0000
00000100: 0000 0000 c4aa 1b39 462e ea38 cab7 2139
00000110: 65aa 6339 65aa 6339 9799 0739 9cc1 0839
00000120: 5e02 f538 eeff 9d38 eeff 9d38 c2aa dd38
00000130: 1de0 cc38 22a5 da38 6ce7 0439 6ce7 0439
00000140: 08e0 8438 ef11 8338 dbed 7a38 7014 1638
00000150: 7014 1638 6476 4a38 22ca 4b38 ccd8 4038
00000160: c255 8938 c255 8938 cc81 5138 7402 4f38
00000170: fbda 4138 0b41 2738 0b41 2738 d7ce cc3a
00000180: a08b b03a 9b96 c03a 309d 2b3a 309d 2b3a
00000190: d01c 5939 ab81 6039 018f 3d39 2b47 3b39
000001a0: 2b47 3b39 2e6b 9924 0000 0000 c928 8427
000001b0: 2f9c be27 2f9c be27 9cbf 0839 1621 0b39
000001c0: 2a3c e938 bc0e c738 bc0e c738 e2fa 1739
000001d0: 5bed 1939 b36f 0a39 7529 1739 7529 1739
000001e0: 8014 823a 2931 933a d518 4b3a c648 1b3a
000001f0: c648 1b3a 6716 4639 ab4a 4a39 4554 3239
00000200: ca36 4439 ca36 4439 27f4 7538 e25f 7138
00000210: 8274 6938 5ae4 8338 5ae4 8338 8483 e838
00000220: 8793 df38 f3c8 dc38 f9df 0439 f9df 0439
00000230: 15f0 8239 dccf 8039 2921 7139 f140 1639
00000240: f140 1639 8278 0738 4e92 5739 42ae a336
00000250: 6218 163a 6218 163a 0000 0000 0000 0000
00000260: 0000 0000 0000 0000 0000 0000 43b8 c238
00000270: 7937 db38 ca3b a738 275a ac38 275a ac38

exp_avg f4 [32]
0.009617306 0.004529895 0.017001996 0.01735773 0.004235261 0.004303171 0.013064454 6e-45
-0.0013167765 0.0020134822 -0.085007 0.027092861 0.0 0.022431534 -0.00032994186 0.018959051
-0.005112107 0.004830845 0.0015934499 0.035433665 0.015447287 6e-45 0.009989879 0.018880319
0.0057938998 0.019470107 0.016008526 0.016668312 -0.0018103761 -0.06594357 0.0 0.013762246
00000000: e891 1d3c 836f 943b c547 8b3c cc31 8e3c
00000010: f2c7 8a3b 9d01 8d3b 4b0c 563c 0400 0000
00000020: b097 acba a0f4 033b 2618 aebd d9f1 dd3c
00000030: 0000 0000 56c2 b73c 0cfc acb9 0350 9b3c
00000040: 7683 a7bb 114c 9e3b 4edb d03a e422 113d
00000050: 9e16 7d3c 0400 0000 97ac 233c e6aa 9a3c
00000060: c1da bd3b c67f 9f3c 5024 833c fc8b 883c
00000070: 244a edba 6c0d 87bd 0000 0000 0b7b 613c

exp_avg_sq f4 [32]
0.00028464352 0.0006695573 0.0004526967 0.0006824768 0.00056886463 0.00021499743 0.00024268526 3.4679708e-13
0.00090743456 0.000502315 0.0046265256 0.0008606017 0.0 0.00079245586 0.0003880594 0.0005826742
0.0001715683 0.00041054955 0.00020175417 0.002999211 0.0007750389 7.1650585e-15 0.0004148251 0.00066816673
0.0027171192 0.00083028537 0.00032364656 0.00055179605 0.0007319564 0.0024009838 0.0 0.0003992125
00000000: 353c 9539 3b85 2f3a ec57 ed39 3ee8 323a
00000010: dc1f 153a ef70 6139 5479 7e39 ba3a c32a
00000020: e7e0 6d3a caad 033a 1c9a 973b 019a 613a
00000030: 0000 0000 d0bc 4f3a 7374 cb39 9bbe 183a
00000040: 04e7 3339 073f d739 f98d 5339 698e 443b
00000050: fb2b 4b3a 0013 0128 e27c d939 e927 2f3a
00000060: b211 323b 82a7 593a 1baf a939 68a6 103a
00000070: c3e0 3f3a d359 1d3b 0000 0000 654d d139

exp_avg f4 [3, 32]
0.007375642 0.010820909 -0.0015550943 0.0050416905 0.009548562 0.010772877 -0.013018384 6e-45
0.012591041 0.0100421235 -0.04115515 -0.0075977654 0.0 0.0010129265 0.013032337 -0.004195329
0.009180439 0.009433255 0.011846504 0.011398123 -0.0031185641 0.0 -0.013290135 0.002536622
0.011606613 0.0042478405 -0.008197248 0.0078012478 0.013979792 -0.041044377 0.0 -0.00016550224
-0.0015359003 -0.0024372584 -0.0015966976 0.00033752297 -0.0032190473 -0.0028460806 0.0004024572 6e-45
-0.0077648796 -0.0035593652 -0.01190188 -0.0009341256 0.0 0.000269913 -0.00683177 -0.0017638388
0.00021662067 -0.0018201389 -0.0026612685 0.0006365182 -0.0019097943 0.0 -0.002345906 -0.0013348452
-0.0025450988 -0.0011829893 -0.0010863561 -0.0009341522 -0.007314089 -0.008542429 0.0 -0.0006019233
0.008737328 0.0076561915 0.0040878886 0.0037781368 0.006265464 0.009590774 -0.0028590634 -6e-45
0.007903458 0.007770947 -0.017077422 0.0013616242 0.0 0.00080222794 0.008729929 0.004840207
0.007064433 0.0063231234 0.0082610445 0.010416034 0.006826962 6e-45 0.0030337034 0.0065842015
0.0070684454 0.007015472 0.00020286435 0.0080484655 0.009099511 -0.016650312 0.0 0.0040874775
00000000: 5faf f13b 2f4a 313c 4ed4 cbba c434 a53b
00000010: 9271 1c3c b980 303c 0f4b 55bc 0400 0000
00000020: a74a 4e3c b887 243c 4d92 28bd adf6 f8bb
00000030: 0000 0000 2cc4 843a 9585 553c f878 89bb
00000040: 8d69 163c f08d 1a3c d717 423c 31bf 3a3c
00000050: d360 4cbb 0000 0000 debe 59bc 753d 263b
00000060: aa29 3e3c 7831 8b3b c04d 06bc 9ca1 ff3b
00000070: 7f0b 653c 261e 28bd 0000 0000 ab8a 2db9
00000080: 4350 c9ba 69ba 1fbb 4848 d1ba 91f5 b039
00000090: a7f6 52bb 4f85 3abb e400 d339 0400 0000
000000a0: 8870 febb 3d44 69bb 1a00 43bc 1ce0 74ba
000000b0: 0000 0000 1c83 8d39 0add dfbb 9c30 e7ba
000000c0: ab24 6339 ba91 eeba ad68 2ebb 03dc 263a
000000d0: 1052 faba 0000 0000 c6bd 19bb f9f5 aeba
000000e0: accb 26bb 890e 9bba 1064 8eba e5e1 74ba
000000f0: 07ab efbb 8bf5 0bbc 0000 0000 64ca 1dba
00000100: 0327 0f3c cae0 fa3b b2f3 853b 9e9a 773b
00000110: 854e cd3b 9f22 1d3c 205f 3bbb 0400 0080
00000120: 817d 013c 6ea3 fe3b f3e5 8bbc 8778 b23a
00000130: 0000 0000 9b4c 523a fa07 0f3c 999a 9e3b
00000140: c27c e73b 3432 cf3b 5559 073c 03a8 2a3c
00000150: b5b4 df3b 0400 0000 19d1 463b 49c0 d73b
00000160: 6b9e e73b 0be2 e53b fcb7 5439 b6dd 033c
00000170: 1e16 153c 3c66 88bc 0000 0000 3ff0 853b

exp_avg_sq f4 [3, 32]
0.0006944514 0.0006002399 0.00052386447 0.000277536 0.0005379982 0.0006384796 0.0002154742 7.131217e-14
0.0020121464 0.00057868124 0.0022262714 0.00042883994 0.0 0.00023330277 0.0018461564 0.000845747
0.00040985676 0.0006423027 0.00062952854 0.0009425484 0.0010161852 0.0 0.0009064075 0.00066373235
0.00096029934 0.00059750344 0.00024464543 0.0005515444 0.0018790632 0.0014033027 0.0 0.0007700361
7.2988194e-05 9.2299284e-05 6.449304e-05 3.7276808e-05 9.3593364e-05 6.693651e-05 9.408315e-06 1.1579597e-15
0.0003974995 8.075015e-05 0.0004845976 4.6636138e-05 0.0 2.6250338e-05 0.00034436153 9.122965e-05
4.8510356e-05 0.00014542452 8.176789e-05 8.577709e-05 8.335847e-05 0.0 6.046421e-05 7.487201e-05
0.0002088356 6.4834196e-05 2.2148564e-05 5.7217327e-05 0.00033767478 0.00021596314 0.0 0.00012058846
0.0014925124 0.001336608 0.0013304672 0.0008620028 0.0010627259 0.0008738818 0.00024247893 1.3076412e-15
0.0015022673 0.0006885626 0.00045999518 0.0009927982 0.0 0.0006891571 0.0015641354 0.001915753
0.0010891567 0.0019438537 0.0011992849 0.0019335817 0.001664773 3.198611e-14 0.0010000906 0.0015806347
0.0030126716 0.0013682059 0.00045691722 0.0012017145 0.0015318885 0.00039530432 0.0 0.0025227962
00000000: d80b 363a 6b59 1d3a f353 093a 4082 9139
00000010: 7308 0d3a a45f 273a eaf0 6139 ab94 a029
00000020: 37de 033b a4b2 173a a3e6 113b ecd5 e039
00000030: 0000 0000 bca2 7439 bbfa f13a 1fb5 5d3a
00000040: 0be2 d639 3460 283a f206 253a 5a15 773a
00000050: 8431 853a 0000 0000 fa9b 6d3a 53fe 2d3a
00000060: 99bc 7b3a c7a1 1c3a c143 8039 8595 103a
00000070: e64a f63a 06ef b73a 0000 0000 3fdc 493a
00000080: 3d11 9938 cd90 c138 7040 8738 ab59 1c38
00000090: 8e47 c438 4460 8c38 68d8 1d37 2ce1 a626
000000a0: 7b67 d039 6858 a938 9711 fe39 2c9b 4338
000000b0: 0000 0000 2c34 dc37 6c8b b439 8c52 bf38
000000c0: 9977 4b38 197d 1839 cd7a ab38 39e3 b338
000000d0: bdd0 ae38 0000 0000 f39a 7d38 9b04 9d38
000000e0: e1fa 5a39 98f7 8738 aecb b937 a3fc 6f38
000000f0: f109 b139 2a74 6239 0000 0000 70e4 fc38
00000100: 68a0 c33a 1f31 af3a 1263 ae3a 07f8 613a
00000110: 2a4b 8b3a 3715 653a f141 7e39 7273 bc26
00000120: bae7 c43a a780 343a 822b f139 c820 823a
00000130: 0000 0000 8da8 343a ad03 cd3a 011a fb3a
00000140: 09c2 8e3a e8c8 fe3a 5331 9d3a 3c70 fd3a
00000150: 8334 da3a 790d 1029 7915 833a 4d2d cf3a
00000160: 3e70 453b 5f55 b33a 648e ef39 d982 9d3a
00000170: a6c9 c83a d940 cf39 0000 0000 7f55 253b

exp_avg f4 [3]
-0.017180653 -0.007750207 -0.002839341
00000000: 71be 8cbc 73f5 fdbb 3d14 3abb

exp_avg_sq f4 [3]
0.0009054638 0.00015914337 0.00054099364
00000000: a65c 6d3a b9df 2639 78d1 0d3a
